Ai/saved_models/hourlylstm2.pt (torch, 7927 bytes, 5 tensors)

lstm.weight_ih_l0 f4 [64, 4]
000000 d7 60 6f bf f4 6a 4f be 69 61 82 be 91 aa 4f c0
       -0.9350714 -0.20255643 -0.25464943 -3.2447855
000010 f9 1f ff 3f 02 e8 94 3f 88 bb b8 3f 4c 10 8f 3f
       1.9931632 1.1633303 1.443223 1.1176848
000020 34 63 0d 40 8a 83 4f 40 68 c9 1e 40 b1 49 30 40
       2.2091799 3.2424035 2.4810429 2.7544978
000030 1f a9 cb 3f 20 00 fd 3e 43 fe 17 be 66 88 c0 3e
       1.5910987 0.49414158 -0.14843087 0.37604064
000040 59 6e f0 3f 0f 30 49 40 be 5a 7a 40 d0 72 51 bf
       1.8783675 3.1435583 3.9117885 -0.81815815
000050 0f 11 58 3f b0 1c 64 3f 4c 92 df 3f cd e0 92 bf
       0.8440103 0.89106274 1.7466521 -1.1474854
000060 51 89 17 40 51 97 65 40 51 78 01 be 3c 04 d1 3f
       2.3677561 3.5873606 -0.12643553 1.6329417
000070 55 c5 12 40 ad e4 35 40 ff 30 9e 3f 96 6d ef bf
       2.2932942 2.8420823 1.2358702 -1.8705318
000080 84 5b a1 bf 57 a4 2b 3e 6c c6 18 bf 9d 0e e8 bf
       -1.2606053 0.1676191 -0.5967777 -1.812946
000090 54 99 2c 3e 13 05 17 3f 83 66 bb 3f ee b1 83 3e
       0.16855365 0.5899212 1.4640659 0.25721687
0000a0 68 bc b7 3e bc e7 b3 3e 3f 76 fe 3f 47 31 40 40
       0.3588593 0.35137737 1.9879836 3.0030077
0000b0 07 02 6a 3e e4 66 87 3c 57 2b e5 3d a8 1c 15 3f
       0.22852336 0.016528554 0.11189907 0.5824685
0000c0 d5 0d 0e c0 53 fa f5 bf 2c c0 3a bf 85 27 3a c0
       -2.2195942 -1.9217018 -0.7294948 -2.908662
0000d0 9f 46 0e 3f b7 1e 91 3f 80 bc f9 3e f2 0d 8a 40
       0.5557651 1.1337498 0.48776627 4.3142023
0000e0 b3 95 42 3f 29 bb a3 3f ba bd 6a 3f 63 aa 0c 40
       0.7600967 1.2791492 0.9169575 2.1978996
0000f0 5a 01 9c be c6 6c 7a 3e 94 42 89 3d b0 aa 5a c0
       -0.3046978 0.24455556 0.06702152 -3.416668
000100 65 02 28 be 72 c5 93 bd ec 35 94 be 10 57 1e 40
       -0.16407163 -0.07215394 -0.2894739 2.4740639
000110 94 0b 3e be 02 0e 7d bf 32 d8 02 c0 6c 6f cc 3e
       -0.18559104 -0.988495 -2.0444455 0.39928758
000120 0b 5f 3c be 8d 02 59 3f 5f e9 f1 be 57 c7 9d c0
       -0.18395631 0.8476952 -0.4724836 -4.9305835
000130 c8 42 e0 3f a2 8a c5 3e 1e a0 e8 3e 13 0a 98 3e
       1.752038 0.3858233 0.4543466 0.29695186
000140 d8 a3 ab 3f 0d 7b ec 3f ee 51 2c 3e 22 90 89 c0
       1.3409376 1.8475052 0.16828129 -4.2988443
000150 f8 c5 08 3f 83 6e 37 3d db ec 18 be 0b e0 1b bf
       0.53427076 0.044783127 -0.14934103 -0.6088874
000160 b4 87 16 be c5 64 4f 3e 13 96 53 bc 28 07 29 40
       -0.14700204 0.20253284 -0.012914198 2.6410618
000170 e9 38 12 40 4f a4 d3 3f be 26 cc 3f 9e be de 3f
       2.2847235 1.6534518 1.5949323 1.7401922
000180 b2 17 f0 bf 67 64 b0 3f 21 37 bd 3f e2 4a 0f c0
       -1.8757231 1.378064 1.4782449 -2.2389455
000190 89 14 ab be b1 56 fe be 5f 62 d2 be d3 3c fb be
       -0.33414105 -0.49675515 -0.41090676 -0.49069843
0001a0 36 79 9e 3f 8d fc 42 3f 19 be b9 3f 03 cb 9b 3f
       1.2380741 0.7616661 1.4511138 1.2171329
0001b0 f6 3b 0e bf c2 ad 00 bf 8c 36 30 bd 31 2e 84 3e
       -0.55560243 -0.50265133 -0.04302077 0.2581649
0001c0 f9 97 e4 be a2 ad 6f bf 5d a4 f4 3e 4a cc 30 40
       -0.44647196 -0.9362432 0.4778165 2.7624688
0001d0 31 45 83 bc 21 2f 1c 3f 67 70 b2 3d 1b ec 56 bf
       -0.016024204 0.61009413 0.08712845 -0.8395402
0001e0 57 40 08 3f be dd 46 3f 07 27 25 3f 19 ab 4d 40
       0.53223175 0.776821 0.64512676 3.213568
0001f0 4f a5 e1 be 75 08 da bd 7d ca 8c be 90 32 19 3e
       -0.44071433 -0.10646144 -0.27498236 0.14960694
000200 19 f1 e6 be 62 c7 01 bf 2d c9 9f bf db f0 72 bf
       -0.45105818 -0.5069486 -1.2483269 -0.94898766
000210 3d 46 fc be a0 d7 26 3e 02 d9 9e bf 31 a9 d8 bf
       -0.49272338 0.16293192 -1.2409976 -1.6926633
000220 c1 d1 f9 be f8 4f 64 c0 df ed c6 bf ad 51 b8 be
       -0.48792842 -3.567381 -1.5541342 -0.35999814
000230 e6 fb 2f 3f 95 3c 9c 3f 4b a8 61 3f 5c 99 82 3e
       0.6874374 1.2205988 0.8814742 0.2550763
000240 27 b5 01 c0 a6 53 10 c0 a1 4d 26 c0 a9 6d 0b bf
       -2.0266817 -2.2551055 -2.598488 -0.54464203
000250 9a c1 a3 3e ad 84 f9 3d b8 b0 a7 3d 55 cd d4 40
       0.31983644 0.12183509 0.08188003 6.650065
000260 87 9c c8 bc 01 5e 16 3f 31 7f b1 3c d9 d4 b1 40
       -0.0244887 0.5873719 0.021667095 5.5572324
000270 66 3d 19 bf e4 d6 c9 3d ce ea 14 3f d3 7f 8f 3f
       -0.5985931 0.0985544 0.58170784 1.1210884
000280 0d 2d d6 3f d2 20 ed 3f 40 3c 7f 3e c5 e7 28 c0
       1.6732498 1.8525641 0.24925327 -2.639146
000290 8d 2b 64 bf cd a2 17 c0 d9 55 c7 be f2 26 15 3f
       -0.89128953 -2.3693116 -0.38932684 0.5826255
0002a0 73 4c fb 3e 01 f1 94 bf aa 84 1a bd fd 2d bd 3f
       0.49081764 -1.1636049 -0.037724175 1.477966
0002b0 f5 b1 1f bf 02 5e c6 bf fa 3a 76 bf 8b 25 2d 40
       -0.62380916 -1.5497439 -0.9618374 2.7054164
0002c0 e8 f9 4d c0 eb 8a 47 c0 ae 4d b0 3e 2b 39 93 3e
       -3.218378 -3.1178539 0.34434265 0.28754553
0002d0 1f 65 5e 3d 9a 72 d4 bf ff a7 5f 3e 9c 7c 17 c0
       0.054295655 -1.6597474 0.21841429 -2.3669806
0002e0 08 ac d1 3f 98 26 fc 3f c9 25 9c 3e 96 63 19 be
       1.6380625 1.9699278 0.30497578 -0.14979395
0002f0 29 2b 25 3f 26 c5 ab 3f 53 80 44 3f 1a 7a d3 be
       0.6451898 1.341954 0.7675831 -0.41304094
000300 70 4f 11 3f 14 41 65 40 b5 26 06 40 9f 88 99 bf
       0.56761837 3.582097 2.0961125 -1.1994818
000310 6f 8b 2f 3f 6d 4c 54 bd ff ac d4 be e7 a1 8d 3f
       0.68572134 -0.051830698 -0.41538236 1.1065034
000320 97 dc 2a bf 74 70 51 3f 7a 81 89 3f 15 c3 02 bf
       -0.66742843 0.81812215 1.0742638 -0.5107892
000330 3b e3 34 bd bf a0 31 3e 54 1f 60 3f 2b d7 c5 40
       -0.044162016 0.17346476 0.875478 6.1825156
000340 bf 88 9a 3f 44 c0 01 3d 79 7a 71 3f 8e 8d c4 bc
       1.2072982 0.0316775 0.94327503 -0.02399328
000350 fc 63 58 3f d0 a9 7f 3f d7 0a d2 3f c3 15 c6 be
       0.84527564 0.9986849 1.6409558 -0.38688478
000360 2b 87 dd 3e 75 5d f1 3e a9 07 37 bf fb bc 23 3d
       0.43267187 0.47141615 -0.71496063 0.039975148
000370 5c c8 5c bf 8b 75 13 c0 54 f4 55 bd f3 e1 3e bf
       -0.86243224 -2.3040493 -0.052234963 -0.7456352
000380 21 9c c5 3e 0b 9c 71 3f 18 50 28 bf d9 a2 4e bf
       0.3859568 0.9437873 -0.65747213 -0.80717236
000390 02 86 18 be 1b 71 a4 be 1d 08 cd be 27 9c b1 3f
       -0.1489487 -0.32117543 -0.40045252 1.3875779
0003a0 85 dd b8 bf 9e f8 0b c0 3f 7a 42 be 50 36 16 3f
       -1.4442602 -2.1870494 -0.18991946 0.58676624
0003b0 05 cb 48 bf 63 22 f4 3c 74 7c 69 bf 7d f8 5e c0
       -0.78434783 0.029801553 -0.91205525 -3.4839165
0003c0 cd f2 de bf 15 17 b2 bf 11 16 2d 3f 04 76 0c be
       -1.7417847 -1.3913294 0.67611796 -0.13716894
0003d0 e0 05 5f bf 3d 55 97 bf 13 03 0e bf 1c 4a 55 3f
       -0.8711834 -1.1822888 -0.5547344 0.83316207
0003e0 44 f4 f0 3e 49 5f 62 3f 1d 88 a2 3f 7b e7 7c bf
       0.4706136 0.88426644 1.2697788 -0.9879071
0003f0 83 cb 45 3f ba 74 fd 3f 50 a8 be 3f bc d3 18 3d
       0.7726366 1.9801247 1.4895115 0.0373113

lstm.weight_hh_l0 f4 [64, 16]
000000 21 dc 2a 3f 30 32 a6 be 9c e3 5b bf 27 d4 02 c0
       0.6674214 -0.32460165 -0.8589418 -2.0441988
000010 ba 60 98 be be 85 ba 3e 2f f8 50 3f 7a 3a 7f 40
       -0.29761297 0.36430162 0.816287 3.9879441
000020 84 4c 38 40 d5 bc 42 c0 71 21 49 3f 35 da 29 3f
       2.8796701 -3.0427754 0.7856665 0.6634858
000030 61 b3 74 3e c3 c3 a8 be 14 38 12 c0 ea 4e 23 40
       0.23896553 -0.32961854 -2.2846727 2.5516915
000040 bf 84 53 40 73 37 bf be a4 2c 03 40 e3 d7 f9 3e
       3.3049772 -0.37346992 2.0495996 0.4879752
000050 c3 20 8b be 78 15 13 bd bf ad 5e be f4 8e 80 3f
       -0.27173433 -0.035909146 -0.21745966 1.0043626
000060 e5 f8 dd 3e f2 1f 17 bf 85 a2 f1 40 1a f4 a8 3e
       0.43353954 -0.5903312 7.551089 0.32998735
000070 97 78 2a 40 fb 9c c0 3f 5e 85 55 40 d2 d2 16 3f
       2.6636102 1.5047907 3.336265 0.58915436
000080 18 ca 38 bf 2e a0 14 c0 f0 c4 5a 40 8b d4 2f c0
       -0.7218337 -2.3222766 3.41827 -2.7473476
000090 e3 90 97 40 51 df 91 bf 6a 5d 3f c0 04 97 a7 bf
       4.7364364 -1.1396276 -2.9900765 -1.3092961
0000a0 93 7b 36 40 85 77 8c c0 bb 72 73 be c2 64 47 be
       2.8512924 -4.38959 -0.23774235 -0.1947203
0000b0 10 e0 9a bf 67 3d f4 3f 36 0f 5d 3f d0 f8 cc bf
       -1.2099628 1.9081239 0.86351335 -1.6013432
0000c0 3e 1e 5c 40 08 d5 a9 bf 91 e3 8b c0 17 98 5f bf
       3.4393458 -1.3268137 -4.371529 -0.87341446
0000d0 95 a5 25 c0 0e 12 8d 3f 1d 9a 40 c0 c3 cb f2 3f
       -2.5882313 1.1021135 -3.0094063 1.8968433
0000e0 c4 ac be bf 75 c0 9a 3f 4c ba 21 c0 2f b1 09 c0
       -1.4896474 1.2089983 -2.5269957 -2.1514394
0000f0 b7 9a 70 40 d9 b1 e0 3e 4a a4 91 40 a5 ee a4 bf
       3.759443 0.43885687 4.551305 -1.2885329
000100 17 34 d1 3e 83 0d 31 bf 09 0c 4e 3f ed ab 4a be
       0.40860054 -0.6916124 0.80487114 -0.19792147
000110 3d 99 29 40 53 20 05 c0 dc 91 93 40 7d 70 9a bf
       2.649978 -2.080098 4.611555 -1.2065579
000120 d7 c5 05 c0 dd 2d 2e bf 4f f3 62 bf c4 17 61 40
       -2.0902002 -0.6803873 -0.8865251 3.5170755
000130 56 fe 18 3f 19 ee 43 bf e8 f2 9b c0 58 d4 68 3f
       0.59763086 -0.76535183 -4.8734016 0.9094901
000140 d9 c8 5f 40 10 a1 b1 bf 4a 7e e5 bf 3c 3a 25 40
       3.4966338 -1.3877277 -1.7929165 2.5816793
000150 04 6a de bf c8 7a 32 40 cc 19 99 3e ca 07 20 c0
       -1.7376103 2.788744 0.29902494 -2.5004754
000160 9a d5 05 c0 41 18 67 bd 9f 9d 47 40 db d4 ed 3f
       -2.0911622 -0.056419615 3.1189954 1.8580583
000170 0e 57 62 3f aa 2d b4 c0 15 f2 b3 40 35 3d 0d bf
       0.88414085 -5.630574 5.623301 -0.5517152
000180 8d 1c aa bf 09 da 99 bf eb b3 4d 3f e7 35 d1 3f
       -1.3289963 -1.2019664 0.8035266 1.6344575
000190 0c 1b 1b 3e d4 a9 86 3f e3 39 47 3f e8 7b 0d 3f
       0.15147036 1.0520577 0.77822703 0.5526719
0001a0 6e cb 9e be 4d bc 90 40 62 9b 4b be ba f3 e9 bf
       -0.3101458 4.522986 -0.19883493 -1.8277504
0001b0 b0 fa 80 c0 86 db 05 bf 62 12 e9 bf 17 04 18 40
       -4.0306015 -0.5228809 -1.8208735 2.3752496
0001c0 8b 08 88 40 4d 93 c7 3f e1 b9 e3 3e 12 06 74 3f
       4.251043 1.5591828 0.44477752 0.9532176
0001d0 c9 42 4a 3f 11 16 32 40 72 e4 0b bf eb e2 26 3f
       0.79008156 2.7825968 -0.54645455 0.6519
0001e0 ab 75 11 40 1c fb f9 3e fd 8c 56 c0 12 79 08 40
       2.272807 0.48824394 -3.3523552 2.1323895
0001f0 c7 ac 7e 3f 9f 7b bc 3f 58 78 4c c0 50 1b ef 40
       0.9948239 1.4725226 -3.1948452 7.472084
000200 30 0c 4d c0 cc 50 2c 3f 2f 60 6d 3e 92 99 a6 3f
       -3.2038689 0.67310786 0.23181222 1.3015616
000210 7f 9f 71 3e 93 22 c6 bf 31 b6 ff 3d 70 a3 05 40
       0.23595999 -1.5479301 0.12485922 2.0881004
000220 22 1e 3c 40 43 cf 00 bf a4 1c 88 bf 1c f4 96 3f
       2.9393392 -0.50316256 -1.063374 1.1793246
000230 38 38 58 3f 1c 67 87 3f 59 66 4c 3d 50 77 9a c0
       0.84460783 1.0578341 0.049902294 -4.8270645
000240 ef f7 11 c0 0e f6 ab 3e 25 a2 97 3f db bd 56 3f
       -2.2807577 0.33586162 1.1846358 0.83883446
000250 cc da 3a 40 31 6d 2b 40 03 d8 8f 3f 8c 27 4f 3f
       2.9196043 2.6785395 1.1237797 0.8091972
000260 97 70 8b 3f dc 53 c3 3e e1 de 48 3f 0f 41 4d c0
       1.0893735 0.38149917 0.78465086 -3.2070959
000270 2d 3f a3 3f f3 36 c5 40 ac 79 1c 3f eb e4 9d 3f
       1.2753655 6.1629577 0.61123157 1.2335485
000280 97 f5 40 40 6c 11 04 40 60 06 57 3f 2f 87 19 c0
       3.0149896 2.0635633 0.839941 -2.398876
000290 eb 40 9d 3f a7 2c bd bf 57 25 a7 c0 0f a4 06 40
       1.2285436 -1.4779252 -5.223308 2.1037633
0002a0 06 b2 ac bf f8 60 ef bf 0c 53 0d 40 1b fd 13 40
       -1.3491828 -1.8701468 2.2081938 2.3123233
0002b0 ab 78 4b c0 e8 7e 75 c0 7b 77 3a 40 89 e7 08 c0
       -3.17924 -3.8358707 2.9135425 -2.1391318
0002c0 8c 29 66 3e 6b 4f 62 bf 06 95 1e bf 26 45 b5 be
       0.22476786 -0.8840243 -0.6194614 -0.3540432
0002d0 4c b1 c2 bf c3 2e c6 3f d9 eb 41 c0 c3 d6 08 40
       -1.5210357 1.548302 -3.03002 2.138108
0002e0 d0 71 12 bf d4 ad 02 c0 a3 37 55 c0 8a da 0f bf
       -0.57204914 -2.0418596 -3.3315208 -0.5619284
0002f0 aa 49 36 c0 b7 61 26 40 a5 d9 fc be f7 cf 81 bf
       -2.848246 2.599714 -0.493848 -1.0141591
000300 cb ce 1c 40 b1 3f 42 3e 1e b3 ad be 32 47 05 bf
       2.4501216 0.18969609 -0.33925718 -0.5206176
000310 a8 a9 c2 bf c6 03 1a be be a7 a9 bd 88 4a cd bd
       -1.5208025 -0.15040502 -0.082839474 -0.10023981
000320 73 31 a0 bf 40 b8 50 3e ad 95 4b c0 bc 98 5d 3f
       -1.2515091 0.20382786 -3.1810105 0.8656118
000330 38 df 27 c0 e7 15 a7 3d 92 35 65 bd 53 a3 02 c0
       -2.6229992 0.081584744 -0.05595929 -2.0412185
000340 3a 71 b3 3f c8 f0 f2 be d1 0e 39 c0 26 7e bc bc
       1.4018929 -0.47449327 -2.8915293 -0.023009371
000350 93 c3 20 bf 39 91 03 40 df bf 17 c0 2d 99 06 40
       -0.6279842 2.0557387 -2.371086 2.103099
000360 6b 0e 0e c0 f3 14 19 c0 d4 87 c1 be cf c8 68 bf
       -2.21963 -2.3919036 -0.3779894 -0.9093141
000370 73 e2 6d 40 56 f7 2e bf 9a d9 92 bf 81 6e b0 3d
       3.7169464 -0.68346155 -1.1472657 0.08614827
000380 7f e5 a7 3f d2 a9 a8 bf a1 24 48 3f 59 37 49 be
       1.3116912 -1.3176825 0.7818089 -0.1965002
000390 12 20 7a bf a5 ff f3 be a8 34 89 be 95 c3 a2 40
       -0.97705185 -0.4765598 -0.26797986 5.0863748
0003a0 c7 a9 30 c0 31 3c 28 c0 b5 5d f8 3f 4c 10 cb 3f
       -2.7603624 -2.6286738 1.9403597 1.5864348
0003b0 1b 82 ca 3f 49 13 77 3f 67 a6 34 c0 23 6d 03 c0
       1.5820955 0.965138 -2.8226564 -2.0535362
0003c0 bf 20 f5 bf 92 59 0f 3f 08 80 8f bf dd fa 71 3f
       -1.9150618 0.5599605 -1.1210947 0.9452341
0003d0 c1 f3 57 be a3 89 8c bf 84 64 32 40 57 c1 af 40
       -0.21089078 -1.0979503 2.787385 5.492351
0003e0 44 7b b6 40 3b 33 61 c0 16 ac 66 bf ba d2 07 41
       5.702547 -3.5187519 -0.9010633 8.488947
0003f0 87 89 89 c0 e8 28 4a c0 61 0e db 3f f3 9b 0c bf
       -4.298038 -3.1587467 1.7113763 -0.5492546

lstm.bias_ih_l0 f4 [64]
000000 f1 c2 6f 3f 56 b1 a3 3e 75 db 10 3f 0d 48 81 3f
       0.9365683 0.31971234 0.56584865 1.0100113
000010 a9 cb dc bc 43 4b d8 bd 9c c6 85 bf bb 5e f9 3e
       -0.026952581 -0.1056123 -1.0451236 0.48705086
000020 51 63 2e bf 3b 72 89 be da 19 e4 be 87 5c 57 3e
       -0.68120295 -0.26844963 -0.44550973 0.2103139
000030 52 f7 80 3f 58 e5 12 bf 69 ba 79 bc ab b7 ba 3e
       1.0075476 -0.573812 -0.015242198 0.36468253
000040 a2 8d 86 3c e3 35 0c bf 50 bb d4 3e 31 24 93 bf
       0.016424958 -0.54769725 0.41549158 -1.149542
000050 20 39 4d be 9a 48 7f 3f 00 bf 0f be 9b 2c 57 3f
       -0.20041323 0.99720156 -0.14037704 0.8405244
000060 9a 18 cf 3f 3a ea f5 be 27 45 14 bf 37 dc 7c be
       1.6179383 -0.48030263 -0.5791802 -0.2469338
000070 32 48 11 be 85 0f a9 3e ff 4a 64 bf c1 d5 c9 3d
       -0.14187697 0.33019653 -0.89176935 0.098552234
000080 56 df c4 3f c9 f8 96 3e b1 d7 e2 be 11 03 b3 bf
       1.5380657 0.29486683 -0.44305184 -1.3985311
000090 bc 52 ad 3f 8d 24 10 3f f9 11 e3 3e 94 c6 da bf
       1.3540874 0.5630577 0.4434965 -1.7091851
0000a0 cf 8f 2e 3f e2 72 ac 3e 8f 41 87 3e f9 fa f1 3f
       0.68188184 0.336814 0.26417205 1.8904716
0000b0 00 a9 f0 3f 5e 81 b1 3f 46 ff 0b c0 b4 e0 e7 bf
       1.8801575 1.3867605 -2.1874557 -1.8115449
0000c0 06 2d cf 3f 5a cb 79 3e c4 4f 90 3f 5b f8 09 bf
       1.6185615 0.24393979 1.1274343 -0.53894585
0000d0 e8 a3 e6 3d 86 d4 13 be f7 ca bb 3f 52 b0 50 3f
       0.112617314 -0.1443654 1.4671315 0.81519043
0000e0 89 46 cd 3f 43 33 88 3f b4 bd 8d 3f 7d 02 28 3f
       1.6037151 1.0640644 1.1073518 0.65628797
0000f0 0f d8 34 3d 50 a8 c8 3f 05 cd 4a 3f 47 f3 c8 bf
       0.044151362 1.5676365 0.79219085 -1.5699242

lstm.bias_hh_l0 f4 [64]
000000 30 18 2e 3f 01 39 67 3d 39 f1 e8 3e 58 eb 75 3f
       0.6800566 0.056450848 0.45496538 0.9606223
000010 30 3f d4 3d fa 5b 92 be 12 36 88 bf 43 32 b2 3e
       0.103636146 -0.28585798 -1.0641501 0.34803972
000020 e5 6c 48 bf f2 ec 7d 3d 23 66 3f bf d2 81 b5 3e
       -0.7829116 0.061993547 -0.74765223 0.35450608
000030 cc 33 a8 3f aa c1 ef be 99 5a 8a be be 5e ab 3e
       1.3140807 -0.4682744 -0.27022246 0.3347072
000040 9d 0d 5e 3e d9 70 d9 be 60 d4 c4 3e 7c d9 8b bf
       0.2168488 -0.42468908 0.3844328 -1.0925746
000050 a3 60 6f be b4 9b 93 3f 8b b2 4f bd e5 72 6e 3f
       -0.23376708 1.1531892 -0.05070738 0.93144065
000060 49 a7 e5 3f c1 26 e1 be b3 78 14 bf 5d 84 d6 3d
       1.7941676 -0.4397488 -0.5799667 0.10474465
000070 c0 be bb bd 01 3c 1f 3f d9 f4 18 bf b1 6f 44 be
       -0.09167242 0.62200934 -0.5974861 -0.19183232
000080 93 39 c2 3f e9 60 e8 3e 01 d6 a9 be b5 33 ca bf
       1.517382 0.45386437 -0.33171085 -1.579703
000090 af 7b 87 3f a6 b3 b6 3e f2 2c 42 3f 2d dc bb bf
       1.058462 0.35683936 0.7584983 -1.4676567
0000a0 b7 79 c2 3e 8b d0 45 bd 19 67 f9 3d 9f 3c ec 3f
       0.37983486 -0.048294585 0.121778674 1.8456
0000b0 16 59 fe 3f ec 81 9c 3f d9 8b e0 bf b5 68 d9 bf
       1.9870937 1.2227149 -1.7542678 -1.6985079
0000c0 52 16 a8 3f f5 0f 83 3e 11 1e bf 3f 11 55 6b be
       1.3131812 0.25598112 1.493105 -0.22981669
0000d0 32 1c fa 3e 8b 39 6f be 98 a1 d2 3f bc 73 8f 3f
       0.48849636 -0.23361795 1.6455564 1.1207194
0000e0 9f fe ca 3f 4b 01 a0 3f d9 2d 87 3f 90 b8 cf 3e
       1.5858954 1.2500395 1.0560867 0.40570498
0000f0 00 9e e6 3d 1b eb c2 3f 07 67 84 3f 18 51 c6 bf
       0.11260605 1.5227998 1.0343941 -1.5493498

linear.weight f4 [1, 16]
000000 43 e5 1f bb ec 99 3a 3e f1 70 b9 be 7c 9f 0c 3e
       -0.0024398125 0.18222779 -0.3621898 0.13732713
000010 fd ac de be 84 67 6a 3d 8e b4 02 3e 9b 5d 9a 3e
       -0.43491355 0.057227626 0.12764189 0.3014954
000020 c2 a7 e5 3e fd f3 ce be bd ae 60 be 93 83 18 be
       0.44854552 -0.40420523 -0.21941657 -0.14893942
000030 f0 5b 19 c0 34 57 00 bc 72 32 65 3e 8e 9f 2b 3f
       -2.3962364 -0.007833291 0.22382525 0.67040336
