Ai/saved_models/hourlylstm.pt (torch, 4973 bytes, 7 tensors)

lstm.weight_ih_l0 f4 [8, 4]
0.97837317 -0.68085474 -0.3873496 -0.13808528 -0.4730282 0.6246093 -0.9832443 1.6853698
-0.12155311 -0.6619436 -0.16221403 0.34326223 0.62146604 -0.62943774 0.57797134 -0.36039442
0.24367268 -0.31844813 -0.2301915 -0.0027446002 -0.9994961 -0.1054452 0.21471298 -0.33136454
-0.58652806 0.07192914 -0.2205776 0.053006213 -1.0554303 -0.23013525 -0.8504418 3.0121527
00000000: aa76 7a3f 7f4c 2ebf b052 c6be 3a66 0dbe
00000010: c130 f2be 65e6 1f3f e6b5 7bbf 33ba d73f
00000020: d6f0 f8bd 2375 29bf 6f1b 26be 11c0 af3e
00000030: 6618 1f3f d522 21bf eef5 133f 9e85 b8be
00000040: 5585 793e a20b a3be 52b7 6bbe c0de 33bb
00000050: fade 7fbf a7f3 d7bd b8dd 5b3e 9da8 a9be
00000060: b426 16bf 964f 933d 18df 61be 0b1d 593d
00000070: 5718 87bf 93a8 6bbe 8eb6 59bf 1cc7 4040

lstm.weight_hh_l0 f4 [8, 2]
0.59310526 -0.34840783 0.33223736 -0.40962538 -0.3348669 0.49951753 0.29726315 -0.31354666
-0.26889637 0.25828785 0.37986448 -0.33521572 -0.069341764 0.33188584 0.20384517 0.37330845
00000000: bfd5 173f 8362 b2be 041b aa3e 6bba d1be
00000010: ad73 abbe c3c0 ff3e e032 983e 3089 a0be
00000020: c9ac 89be 4e3e 843e 997d c23e 65a1 abbe
00000030: 0e03 8ebd f1ec a93e cabc 503e 4922 bf3e

lstm.bias_ih_l0 f4 [8]
0.8775923 -0.053433888 -0.6273152 0.23287483 0.26027825 -0.08971127 0.091139294 -1.1652299
00000000: e4a9 603f 7edd 5abd bb97 20bf bd76 6e3e
00000010: 3143 853e 8bba b7bd 3da7 ba3d 4126 95bf

lstm.bias_hh_l0 f4 [8]
0.7717569 0.06314117 0.47886744 -0.5341699 0.6823945 -0.5402728 0.292973 -0.32420847
00000000: dc91 453f 2850 813d 1d2e f53e 5cbf 08bf
00000010: 68b1 2e3f 514f 0abf 8f00 963e a7fe a5be

fc_1.weight f4 [128, 2]
-0.8180236 -0.113584116 -0.4161089 0.51728046 -2.3972855 -0.21762024 0.26746693 -0.5908486
0.35134882 0.21820785 -0.59605193 -0.17595749 0.140684 0.43878147 -0.41732812 -0.42348027
-0.30347055 0.1620682 -0.771487 -0.16354908 0.18837811 -0.49669546 -0.41411218 -0.6691342
0.6841403 -0.21219973 0.4055351 0.022059582 -0.06327514 -0.068828754 -0.019984055 -0.027951635
0.17127855 0.23551044 -0.07969156 -0.39824685 0.7964608 -0.48142338 -0.23193294 0.3788136
0.7974511 -0.9706654 0.2779834 -0.34304222 0.57344854 -0.430251 -0.76015985 -0.20122989
0.16903041 0.48010904 0.24376576 -0.44056416 -0.1166371 -0.5996961 0.7280638 -0.5639981
-0.054091685 -0.4969314 -0.48409978 0.31102923 0.53031296 0.85656077 0.8490616 0.28482977
-0.41996342 -0.11394179 0.09501356 -0.43991715 -0.12112005 -0.415736 0.40684503 -0.04929234
-0.47880876 -0.9207362 -0.397439 0.061606787 0.39579752 0.13222645 0.55713516 0.42418745
-0.5162669 0.0021699718 -0.20758528 0.3893524 0.5129957 -0.23316832 -0.34809032 0.030274754
-2.7127478 -0.21370533 0.47678933 0.3783014 -0.23088993 0.29492822 0.10881903 -0.07609023
-0.12964648 0.31154704 -2.9003344 0.35345936 0.10327187 -0.059400924 0.5150196 -0.31870002
-0.56161964 0.16975103 0.24314111 0.006628856 -0.30368862 0.5637241 -0.08923878 0.544405
0.23223116 -0.30860966 0.6274664 -0.62489134 -0.7516745 -0.40201902 -0.09200404 -0.05522434
-0.8878272 -0.7825777 0.6934323 0.047634102 0.39611915 -1.0995138 -0.90982115 0.3361547
0.12070739 -0.39039883 -0.43404323 -0.1348657 -0.1998635 -0.033267163 0.45528173 0.49276808
0.29195222 0.4718641 -0.11914998 0.14009193 -0.6888013 0.23700716 0.086003594 -0.08890979
-0.23191471 -0.26391613 0.3119489 -0.2178241 -0.5706928 0.37285435 0.67536765 0.0696966
0.4095699 -0.09973989 0.03534519 0.02470328 -0.8443986 -0.28166252 -0.3081183 -0.40024593
-2.5971851 0.076870844 0.106078014 0.52518153 -0.14033552 0.15746997 0.3908273 -0.20565175
0.30076012 0.04597349 -0.43954358 0.10374769 -0.15660757 0.42423669 -0.15650278 -0.5422647
-0.3508734 -0.74675083 -0.87165385 -0.24365103 -0.64547044 0.7024926 0.35645065 0.67292136
0.19575971 -0.54470956 -0.29597512 0.42570186 -0.24432637 -0.52361345 -0.0250665 -0.051110648
0.09825315 -0.40544358 -0.40353653 0.6373549 0.06082064 -2.8392115 -0.2703804 0.07501365
-0.4696133 0.65020573 0.55201197 -0.6686545 -2.6100461 0.052568685 0.78877354 0.40290692
0.22106527 0.4050958 0.71242076 -0.8161118 0.5306294 -0.596521 -0.04637932 -0.44508666
0.17122854 -0.6477538 -0.11736658 0.33634964 -0.2501101 -0.64252484 -0.45826167 -0.1977295
0.014623523 0.41970387 -0.76960164 0.25983617 -0.28597352 0.2788068 -0.1141072 -0.5222619
0.4488369 -0.56660473 -0.18515201 0.44879696 0.6350747 -0.5616103 -0.27125213 0.067403175
-0.029707458 0.2137249 -0.5479594 -0.18080144 0.0686008 -0.13490191 -0.93294084 0.33039784
-0.5482258 -0.45349902 -0.47998542 0.66183347 0.53563243 0.29900187 -0.6619167 -0.23322165
00000000: ff69 51bf ca9e e8bd 3a0c d5be 7e6c 043f
00000010: 206d 19c0 d7d7 5ebe 6df1 883e db41 17bf
00000020: fee3 b33e e171 5f3e dc96 18bf 332e 34be
00000030: 770f 103e f7a7 e03e 08ac d5be 68d2 d8be
00000040: 7e60 9bbe 35f5 253e 2c80 45bf 6979 27be
00000050: 31e6 403e de4e febe 8306 d4be 614c 2bbf
00000060: d223 2f3f e34a 59be 4ca2 cf3e 4cb6 b43c
00000070: 6696 81bd 17f6 8cbd 9ab5 a3bc d4fa e4bc
00000080: a563 2f3e a629 713e 5435 a3bd 03e7 cbbe
00000090: dbe4 4b3f 207d f6be d47f 6dbe dbf3 c13e
000000a0: c125 4c3f 877d 78bf d753 8e3e 3ba3 afbe
000000b0: 86cd 123f dc49 dcbe d699 42bf 350f 4ebe
000000c0: 4f16 2d3e dad0 f53e bb9d 793e a091 e1be
000000d0: 6fdf eebd af85 19bf 6462 3a3f 2e62 10bf
000000e0: 3e8f 5dbd cb6d febe eddb f7be 393f 9f3e
000000f0: 97c2 073f 9147 5b3f 1a5c 593f 35d5 913e
00000100: 7205 d7be 505a e9bd 7896 c23d d23c e1be
00000110: ca0d f8bd 59db d4be fe4d d03e c4e6 49bd
00000120: 6c26 f5be 5eb5 6bbf 207d cbbe 6657 7c3d
00000130: f9a5 ca3e 5f66 073e 69a0 0e3f 192f d93e
00000140: 112a 04bf 1636 0e3b 3c91 54be 3359 c73e
00000150: b053 033f adc3 6ebe e538 b2be c302 f83c
00000160: a99d 2dc0 92d5 5abe bb1d f43e b9b0 c13e
00000170: 696e 6cbe d500 973e 83dc de3d 32d5 9bbd
00000180: 0cc2 04be 1883 9f3e 149f 39c0 a0f8 b43e
00000190: 3480 d33d 624e 73bd 53d8 033f a62c a3be
000001a0: 4ec6 0fbf 37d3 2d3e fcf9 783e e036 d93b
000001b0: 137d 9bbe 3950 103f d2c2 b6bd 205e 0b3f
000001c0: 01ce 6d3e 1602 9ebe a3a1 203f e1f8 1fbf
000001d0: bd6d 40bf 70d5 cdbe 9d6c bcbd eb32 62bd
000001e0: a548 63bf 0357 48bf c784 313f fa1b 433d
000001f0: 21d0 ca3e debc 8cbf 0aea 68bf 781c ac3e
00000200: 7035 f73d 5be2 c7be ea3a debe 3c1a 0abe
00000210: 04a9 4cbe 2643 08bd b01a e93e 194c fc3e
00000220: c37a 953e 2c98 f13e e804 f4bd 4274 0f3e
00000230: 4855 30bf 01b2 723e a722 b03d 5616 b6bd
00000240: 0d7b 6dbe 0420 87be c4b7 9f3e 480d 5fbe
00000250: ec18 12bf c4e6 be3e e5e4 2c3f 17bd 8e3d
00000260: 25b3 d13e 6d44 ccbd 1ec6 103d 885e ca3c
00000270: 822a 58bf 1236 90be afc1 9dbe 09ed ccbe
00000280: 4838 26c0 766e 9d3d 6e3f d93d 4c72 063f
00000290: 1db4 0fbe cf3f 213e 841a c83e 5f96 52be
000002a0: 3bfd 993e b34e 3c3d db0b e1be ab79 d43d
000002b0: bc5d 20be 8d35 d93e 4442 20be dcd1 0abf
000002c0: aea5 b3be 102b 3fbf b524 5fbf a87f 79be
000002d0: 8d3d 25bf 8ed6 333f b380 b63e 9344 2c3f
000002e0: 3c75 483e 1672 0bbf 0d8a 97be 98f5 d93e
000002f0: b130 7abe 880b 06bf 4358 cdbc 6659 51bd
00000300: f338 c93d 4d96 cfbe 579c cebe b129 233f
00000310: 101f 793d a4b5 35c0 4d6f 8abe c2a0 993d
00000320: 2871 f0be e273 263f a850 0d3f f12c 2bbf
00000330: ff0a 27c0 4352 573d 10ed 493f d149 ce3e
00000340: ef5e 623e b768 cf3e 3561 363f b4ec 50bf
00000350: 54d7 073f 9ab5 18bf 3ef8 3dbd 66e2 e3be
00000360: 8956 2f3e 31d3 25bf e45d f0bd 0536 ac3e
00000370: 6e0e 80be 827c 24bf 46a1 eabe 9a79 4abe
00000380: 8097 6f3c 6de3 d63e 9d04 45bf 3f09 853e
00000390: 1f6b 92be c4bf 8e3e 09b1 e9bd f5b2 05bf
000003a0: f3cd e53e 020d 11bf 7d98 3dbe b7c8 e53e
000003b0: 4194 223f b1c5 0fbf 8fe1 8abe ad0a 8a3d
000003c0: 0e5d f3bc b3da 5a3e 1147 0cbf 0324 39be
000003d0: 947e 8c3d ba23 0abe 36d5 6ebf e829 a93e
000003e0: 8758 0cbf 0631 e8be a6c0 f5be eb6d 293f
000003f0: 351f 093f c616 993e 5f73 29bf a8d1 6ebe

fc_1.bias f4 [128]
0.63237494 -0.27869248 0.18249175 0.2936052 0.09521212 0.2907723 -0.601934 0.35175106
-0.46981984 0.09939553 -0.33630815 -0.025602523 -0.06173926 -0.13053766 -0.379406 0.1489728
-0.5669719 0.21676037 -3.263878e-05 0.383999 -0.07123574 -0.4237004 2.9662333e-05 0.5203323
-0.28759426 0.20490631 -0.54713285 0.0022652538 -0.50565225 -0.15586065 -0.4705439 -0.34340435
0.20498785 0.07437464 0.06977589 -0.38643417 0.39644566 0.62534034 -0.033228092 0.0632077
0.59205985 -0.6825855 -2.211536e-05 -0.6106853 0.1575499 0.19462149 0.61365944 -0.5354595
-0.40978134 0.22221155 0.2701644 -0.05674757 0.55809915 -0.34743544 -0.4071426 0.4432667
-0.49316996 -2.2363383e-07 0.6425774 -0.60361105 0.5615636 -8.505359e-05 -0.07990898 0.14091843
-0.13148223 -0.69895744 -0.03263261 -0.40971908 0.47269666 0.31470972 -0.5703367 -0.21118167
-0.6152282 -0.27688962 -0.5923351 -2.5306828e-05 -0.034440648 -0.25794512 0.33742833 -0.69466656
0.29191267 -0.36478004 -0.19259769 -0.45596904 -0.051166188 0.12795225 -0.4738855 -0.017173275
0.03905415 0.5350728 -0.05808274 -0.43369824 0.60808045 0.6789421 -0.58892184 0.36538276
-0.6004686 0.2582982 0.02940073 0.07324361 -0.37795734 -0.06367263 0.19881737 0.25472617
-0.2841791 -2.9805757e-05 -0.7009651 -0.61698586 0.60448647 -0.09115048 -0.132391 -0.5669361
-0.63055646 0.21669362 -0.16136149 -0.13854317 7.964455e-05 0.29286757 0.29662704 -0.37691784
-0.25162587 0.21901162 0.21848121 0.5179215 0.5873836 -0.35479376 -0.6996172 0.10234531
00000000: 53e3 213f c8b0 8ebe 1edf 3a3e 6c53 963e
00000010: 92fe c23d 1be0 943e 5918 1abf b718 b43e
00000020: 3a8c f0be e28f cb3d 9530 acbe 62bc d1bc
00000030: 4ee2 7cbd aaab 05be 8141 c2be 538c 183e
00000040: 1225 11bf 6ef6 5d3e a0e5 08b8 849b c43e
00000050: 0be4 91bd 42ef d8be 60d3 f837 7f34 053f
00000060: 8e3f 93be f6d2 513e e610 0cbf a774 143b
00000070: 6d72 01bf ef99 1fbe 21eb f0be b2d2 afbe
00000080: 56e8 513e bb51 983d a9e6 8e3d b3da c5be
00000090: edfa ca3e 4e16 203f 2e1a 08bd 0a73 813d
000000a0: 3c91 173f ecbd 2ebf 6084 b9b7 df55 1cbf
000000b0: c354 213e db4a 473e c918 1d3f e013 09bf
000000c0: dcce d1be 6d8b 633e fd52 8a3e 2470 68bd
000000d0: 96df 0e3f 0fe3 b1be ff74 d0be daf3 e23e
000000e0: c680 fcbe 0020 70b4 f47f 243f 4186 1abf
000000f0: a2c2 0f3f cc5e b2b8 52a7 a3bd ec4c 103e
00000100: 47a3 06be e0ee 32bf c6a9 05bd b3c6 d1be
00000110: 4c05 f23e a221 a13e 9601 12bf 0240 58be
00000120: 987f 1dbf 7ac4 8dbe 46a3 17bf 004a d4b7
00000130: a311 0dbd 6211 84be 68c3 ac3e abd5 31bf
00000140: 9475 953e 73c4 babe 5438 45be c674 e9be
00000150: a393 51bd ea05 033e 1fa1 f2be f8ae 8cbc
00000160: 3ff7 1f3d 88fa 083f 2be8 6dbd b20d debe
00000170: 29ab 1b3f 26cf 2d3f 95c3 16bf 7313 bb3e
00000180: 4fb8 19bf a93f 843e cdd9 f03c bf00 963d
00000190: a083 c1be cc66 82bd c896 4b3e 786b 823e
000001a0: ec7f 91be 6007 fab7 7372 33bf c9f2 1dbf
000001b0: a0bf 1a3f 1aad babd 8291 07be b922 11bf
000001c0: 266c 21bf efe4 5d3e f23b 25be 43de 0dbe
000001d0: d806 a738 bdf2 953e 80df 973e 60fb c0be
000001e0: 1bd5 80be 9544 603e 8ab9 5f3e 8196 043f
000001f0: c65e 163f 87a7 b5be 1d1a 33bf 6b9a d13d

fc.weight f4 [1, 128]
0.08663796 0.0024716386 0.72956127 0.012609384 0.035211463 0.04881018 0.06997906 0.020101374
-0.009974452 0.54040575 -0.07743493 0.005556746 0.061055243 0.2013 -0.07733248 -0.012894931
0.04349699 0.04649745 -0.14412478 0.08540622 0.081559405 -0.08233909 -0.13123983 0.0591541
0.03202689 -0.05349974 -0.0581674 -0.07851791 -0.054263465 0.01682852 -0.20077668 -0.76419055
0.01820055 0.01189335 0.0009083129 -0.013817897 0.0813868 0.093218476 -0.032693785 -0.06719032
0.08015429 0.03259849 -0.06566988 0.075057864 -1.3301114 -0.04379112 0.08793882 -0.087646835
-0.04681319 0.9154896 -0.03569063 0.019195585 0.052735437 -0.0076182955 0.079109 0.061688166
-0.08649353 -0.1060899 0.10919933 -0.009489574 0.0913414 -0.06520424 -0.17239258 0.3643836
0.07958508 -0.07001551 -0.011491363 -0.029979121 0.0476698 -0.010693257 -0.086894006 0.07327306
0.053474434 -0.019271173 -0.08278916 -0.103616446 -0.035194363 0.054368496 0.08701355 -0.027398802
-0.8883944 0.07212107 -0.05547506 0.054680582 -0.03524039 -0.01441585 -0.0025904824 -0.012841915
-0.04923712 0.033430066 0.07095878 -0.017582284 0.03948466 0.078996904 0.0788427 0.07031584
0.057345316 0.03216218 -0.10391276 0.001196791 0.011045319 -0.13946451 0.7994561 -0.07316179
0.080304064 -0.053082876 0.004681187 0.0038109496 0.080380015 0.03877214 -0.087124445 -0.034296703
-0.011934122 0.031112023 0.05517407 -0.013088356 -0.12700903 0.020916665 -0.060629647 0.03388813
0.042593013 0.01858816 0.040744457 0.0638221 0.10133483 0.046123467 -0.0014629277 0.3346751
00000000: 3e6f b13d 37fb 213b 87c4 3a3f 9797 4e3c
00000010: e539 103d 2fed 473d 2e51 8f3d a3ab a43c
00000020: e26b 23bc 0858 0a3f 3496 9ebd 5d15 b63b
00000030: 1015 7a3d 9621 4e3e 7e60 9ebd 4345 53bc
00000040: e629 323d 1c74 3e3d 7295 13be 75e9 ae3d
00000050: 9e08 a73d 66a1 a8bd bc63 06be 924b 723d
00000060: a12e 033d 8b22 5bbd f140 6ebd ffcd a0bd
00000070: 5e43 5ebd f7db 893c 6798 4dbe fea1 43bf
00000080: 5219 953c 53dc 423c d91b 6e3a 7664 62bc
00000090: 1fae a63d 54e9 be3d ebe9 05bd 149b 89bd
000000a0: ef27 a43d ff85 053d ee7d 86bd f0b7 993d
000000b0: 1741 aabf 515e 33bd 4519 b43d 2f80 b3bd
000000c0: 30bf 3fbd 875d 6a3f 5730 12bd 0f40 9d3c
000000d0: 1d01 583d e5a2 f9bb e603 a23d bbac 7c3d
000000e0: 8523 b1bd a945 d9bd e6a3 df3d 287a 1bbc
000000f0: 3311 bb3d cd89 85bd ae87 30be 7d90 ba3e
00000100: 81fd a23d 4b64 8fbd 4546 3cbc c696 f5bc
00000110: 6941 433d c532 2fbc 7cf5 b1bd 3010 963d
00000120: 0208 5b3d 94de 9dbc 5d8d a9bd dc34 d4bd
00000130: f727 10bd 80b1 5e3d 2934 b23d 7473 e0bc
00000140: d16d 63bf 36b4 933d d139 63bd bff8 5f3d
00000150: 3a58 10bd 7530 6cbc 15c5 29bb e566 52bc
00000160: ddac 49bd f7ed 083d d652 913d b908 90bc
00000170: abba 213d 21c9 a13d 4878 a13d c001 903d
00000180: ece2 6a3d 7dbc 033d 37d0 d4bd a4dd 9c3a
00000190: 6df7 343c c9cf 0ebe 28a9 4c3f d9d5 95bd
000001a0: 7576 a43d 6e6d 59bd a564 993b 20c1 793b
000001b0: 479e a43d 89cf 1e3d 4d6e b2bd b37a 0cbd
000001c0: 5687 43bc a4de fe3c 35fe 613d 8b70 56bc
000001d0: a80e 02be 6d59 ab3c cb56 78bd 48ce 0a3d
000001e0: 0376 2e3d 3246 983c a9e3 263d 29b5 823d
000001f0: a388 cf3d f6eb 3c3d b5bf bfba 895a ab3e
