backend/Ai/saved_models/hourlylstm.pt (torch, 4973 bytes, 7 tensors)

lstm.weight_ih_l0 f4 [8, 4]
0	0x401a1600	2.4075928
1	0xc01f3773	-2.4877594
2	0x3f18d125	0.5969413
3	0xbea78771	-0.3272052
4	0xc093fa0b	-4.624273
5	0xbffb9ce6	-1.9657257
6	0xc00f15e0	-2.2357101
7	0x3f2fd20a	0.6867987
8	0xbdf8f0d6	-0.12155311
9	0xbf297523	-0.6619436
10	0xbe261b6f	-0.16221403
11	0x3eafc011	0.34326223
12	0x3f1f1866	0.62146604
13	0xbf2122d5	-0.62943774
14	0x3f13f5ee	0.57797134
15	0xbeb8859e	-0.36039442
16	0x3e64ab03	0.22330861
17	0xbf278a9d	-0.6544588
18	0xbdb74894	-0.0894939
19	0x3c94ec64	0.018179126
20	0xbf9d6c43	-1.2298664
21	0x3d89702e	0.0671085
22	0x3e48b35d	0.19599672
23	0xbed3db5d	-0.41378298
24	0xbdb14d8c	-0.08657369
25	0xbe898ae6	-0.26863784
26	0xbf16881f	-0.58801454
27	0x3bece00a	0.007228856
28	0xbff14062	-1.8847773
29	0xbfa151d2	-1.2603095
30	0x3f557354	0.833791
31	0x4053bbd0	3.3083382

lstm.weight_hh_l0 f4 [8, 2]
0	0x3f17d5bf	0.59310526
1	0xbeb26283	-0.34840783
2	0x3eaa1b04	0.33223736
3	0xbed1ba6b	-0.40962538
4	0xbeab73ad	-0.3348669
5	0x3effc0c3	0.49951753
6	0x3e9832e0	0.29726315
7	0xbea08930	-0.31354666
8	0xbe89acc9	-0.26889637
9	0x3e843e4e	0.25828785
10	0x3ec27d99	0.37986448
11	0xbeaba165	-0.33521572
12	0xbd8e030e	-0.069341764
13	0x3ea9ecf1	0.33188584
14	0x3e50bcca	0.20384517
15	0x3ebf2249	0.37330845

lstm.bias_ih_l0 f4 [8]
0	0x4014fbec	2.327876
1	0xc0766079	-3.8496382
2	0xbf2097bb	-0.6273152
3	0x3e6e76bd	0.23287483
4	0x3f18079f	0.5938663
5	0xbde3c4a4	-0.111214906
6	0x3db47ed3	0.08813252
7	0xbfd74851	-1.6818944

lstm.bias_hh_l0 f4 [8]
0	0x400e35e0	2.2220383
1	0xc06eeac5	-3.7330792
2	0x3ef52e1d	0.47886744
3	0xbf08bf5c	-0.5341699
4	0x3f820b82	1.0159762
5	0xbf0fd02c	-0.5617702
6	0x3e9476a1	0.28996757
7	0xbf5742e1	-0.84086424

fc_1.weight f4 [128, 2]
0	0xbf4a71d4	-0.7907994
1	0xbbd61b75	-0.006534035
2	0xbed50c3a	-0.4161089
3	0x3f046c7e	0.51728046
4	0xc05a2585	-3.40854
5	0xbe5ed7d7	-0.21762024
6	0x3e63dc36	0.22251973
7	0xbf82fd38	-1.0233526
8	0x3eb60752	0.3555246
9	0x3e98b3e6	0.29824752
10	0xbe9b1ccd	-0.3029541
11	0xc038a402	-2.8850102
12	0x3e100f77	0.140684
13	0x3ee0a7f7	0.43878147
14	0xbe92f04f	-0.28698966
15	0xbf3215d3	-0.6956455
16	0xbe9b607e	-0.30347055
17	0x3e25f535	0.1620682
18	0xbfb33ac3	-1.4002308
19	0xbe277969	-0.16354908
20	0x3e40e631	0.18837811
21	0xbefe4ede	-0.49669546
22	0xbed40683	-0.41411218
23	0xbf2b4c61	-0.6691342
24	0x3f2e1f88	0.6801686
25	0xbdf8c626	-0.12147169
26	0x3eec2b70	0.4612689
27	0x3e1628f5	0.14664061
28	0xbd819666	-0.06327514
29	0xbd8cf617	-0.068828754
30	0xbde3a2f9	-0.11115069
31	0x3adcb33e	0.0016838086
32	0x3e2f63a5	0.17127855
33	0x3e7129a6	0.23551044
34	0xbda2b1af	-0.07944047
35	0xbea43de5	-0.32078472
36	0x3f43812d	0.7636898
37	0xbf202227	-0.6255211
38	0xbe4f85f5	-0.20265944
39	0x3ef9a5bc	0.48759258
40	0x3f4ca33b	0.7993657
41	0xbf5f028f	-0.8711328
42	0x3e8e53d7	0.2779834
43	0xbeafa33b	-0.34304222
44	0x3f0a37fd	0.5399168
45	0xbf135856	-0.57556665
46	0xbf3a20ce	-0.72706306
47	0xbe335e41	-0.17516424
48	0x3e2d164f	0.16903041
49	0x3ef5d0da	0.48010904
50	0x3e1e2a3a	0.15445796
51	0xbf1afb98	-0.6054015
52	0xbdeedf6f	-0.1166371
53	0xbf1985af	-0.5996961
54	0x3f2ee5ba	0.68319285
55	0xbf381c2c	-0.71917987
56	0xbd5d8f3e	-0.054091685
57	0xbefe6dcb	-0.4969314
58	0xbef7dbed	-0.48409978
59	0x3e9f3f39	0.31102923
60	0x3f2ff869	0.6873842
61	0x3f07d0a1	0.5305272
62	0x3f472ffe	0.77807605
63	0x3dc985bd	0.09839962
64	0xbf144313	-0.5791485
65	0xbe1f3f0e	-0.15551397
66	0x3e746248	0.23865616
67	0xbf90797c	-1.1287074
68	0xbed06ea7	-0.4070942
69	0xbee4a070	-0.44653654
70	0x3ed04dfe	0.40684503
71	0xbd49e6c4	-0.04929234
72	0xbe9a6f6a	-0.30163127
73	0xbfaad7ca	-1.3347104
74	0xbebb940f	-0.36636397
75	0x3e308750	0.17239118
76	0x3ed8ed0f	0.4236836
77	0xbd1d41ab	-0.038392704
78	0x3eed5e88	0.46361184
79	0x3e82a43b	0.25515923
80	0xbefa8aac	-0.48933923
81	0x3dde9099	0.108674236
82	0xbe54913c	-0.20758528
83	0x3ec75933	0.3893524
84	0x3eec06e3	0.46099004
85	0xbeca4d58	-0.39512134
86	0xbeb238e5	-0.34809032
87	0x3cf802c3	0.030274754
88	0xc04d8b0c	-3.2116117
89	0xbe5ad592	-0.21370533
90	0x3eb78cc7	0.35849592
91	0x3e410c64	0.18852383
92	0xbe4d669d	-0.20058675
93	0x3ecf4929	0.40485504
94	0x3ddedc83	0.10881903
95	0xbd9bd532	-0.07609023
96	0xbe04c20c	-0.12964648
97	0x3e9f8318	0.31154704
98	0xc07824ae	-3.8772388
99	0x3eb4f8a0	0.35345936
100	0xbbf00928	-0.0073253103
101	0xbe77b9ff	-0.24192046
102	0x3f08c1a6	0.53420484
103	0xbed8fdc8	-0.4238112
104	0xbf0cdb88	-0.5502248
105	0x3e853e8c	0.26024282
106	0x3e78f9fc	0.24314111
107	0x3bd936e0	0.006628856
108	0xbe9b7d13	-0.30368862
109	0x3f105039	0.5637241
110	0xbd8a4aec	-0.067525715
111	0x3f2529d0	0.64516926
112	0x3e6dce01	0.23223116
113	0xbe9e0216	-0.30860966
114	0x3f17161f	0.5901813
115	0xbf4602c5	-0.77347976
116	0xbf37fb4c	-0.71867824
117	0xbe94009f	-0.28906724
118	0xbdbc6c9d	-0.09200404
119	0xbd6232eb	-0.05522434
120	0xbf51a949	-0.81898934
121	0xbf17496d	-0.59096414
122	0x3f23e4ca	0.6402098
123	0xbdebb864	-0.11509779
124	0x3eee999e	0.46601576
125	0xbfd8aa9d	-1.6927067
126	0xbf5f53d1	-0.8723727
127	0x3eac1c78	0.3361547
128	0x3df73570	0.12070739
129	0xbec7e25b	-0.39039883
130	0xbede3aea	-0.43404323
131	0xbe0a1a3c	-0.1348657
132	0xbe4ca904	-0.1998635
133	0xbd084326	-0.033267163
134	0x3ede8cd2	0.43466812
135	0x3ef4744b	0.47744974
136	0x3e9cf7be	0.30657762
137	0x3f10a005	0.5649417
138	0xbe946097	-0.28979942
139	0x3b8fc9ce	0.0043880707
140	0xbf305548	-0.6888013
141	0x3e72b201	0.23700716
142	0x3db022a7	0.086003594
143	0xbdb61656	-0.08890979
144	0xbe6d7b0d	-0.23191471
145	0xbe872004	-0.26391613
146	0x3e9fb7c4	0.3119489
147	0xbe5f0d48	-0.2178241
148	0xbf1218ec	-0.5706928
149	0x3ebee6c4	0.37285435
150	0x3f22f602	0.6365663
151	0xbda3b76d	-0.0799397
152	0x3ee137d3	0.43987903
153	0xbe8892b9	-0.2667444
154	0x3d10c61e	0.03534519
155	0x3cca5e88	0.02470328
156	0xbf509ed8	-0.81492376
157	0xbe993290	-0.2992139
158	0xbe9dc1af	-0.3081183
159	0xbecced09	-0.40024593
160	0xc0a3c726	-5.11806
161	0x3d9d6e76	0.076870844
162	0x3dd93f6e	0.106078014
163	0x3f06724c	0.52518153
164	0xbe0fb41d	-0.14033552
165	0x3e213fcf	0.15746997
166	0x3ec81a84	0.3908273
167	0xbe52965f	-0.20565175
168	0x3f20d18c	0.62819743
169	0xbdf5f269	-0.12009127
170	0xbf067276	-0.52518404
171	0x3dd479ab	0.10374769
172	0xbe205dbc	-0.15660757
173	0x3ed9358d	0.42423669
174	0xbe204244	-0.15650278
175	0xbf0ad1dc	-0.5422647
176	0xc01e1ff2	-2.4706998
177	0xbf3f2b10	-0.74675083
178	0xbf3a0171	-0.7265845
179	0xbef33aee	-0.47505897
180	0xbf253d8d	-0.64547044
181	0x3f33d68e	0.7024926
182	0x3eb10794	0.34576094
183	0x3f2a5ba7	0.665461
184	0x3e4d6246	0.2005702
185	0xbeec8e0c	-0.46202123
186	0xbe89407e	-0.26807016
187	0x3f087c67	0.5331482
188	0xbe7a30b1	-0.24432637
189	0xbf060b88	-0.52361345
190	0xb99b85b0	-0.0002966351
191	0x3d57b8df	0.05266654
192	0x3dc938f3	0.09825315
193	0xbecf964d	-0.40544358
194	0xbf03f2b0	-0.51542187
195	0x3f21cc50	0.6320238
196	0xbdadfa1f	-0.084949724
197	0xc030daa6	-2.7633452
198	0xc011f014	-2.2802782
199	0x3d99a0c2	0.07501365
200	0xbef07128	-0.4696133
201	0x3f2673e2	0.65020573
202	0x3f1c3765	0.61022025
203	0xbf2ef6a8	-0.6834512
204	0xc0676f5f	-3.6161726
205	0x3d575243	0.052568685
206	0x3f355cc4	0.70844674
207	0x3e7b4033	0.24536209
208	0x3e625eef	0.22106527
209	0x3ecf68b7	0.4050958
210	0x3f277a57	0.6542105
211	0xbf7bd22c	-0.9836757
212	0x3f07d754	0.5306294
213	0xbf18b59a	-0.596521
214	0xbd3df83e	-0.04637932
215	0xbee3e266	-0.44508666
216	0x3e4c8c33	0.19975357
217	0xbf0a39f3	-0.53994673
218	0xbdf05de4	-0.11736658
219	0x3eac3605	0.33634964
220	0xbe800e6e	-0.2501101
221	0xbf247c82	-0.64252484
222	0xbeeaa146	-0.45826167
223	0xbe4a799a	-0.1977295
224	0x3c6f9780	0.014623523
225	0x3ed6e36d	0.41970387
226	0xbf5bc696	-0.85849893
227	0x3e85093f	0.25983617
228	0xbe926b1f	-0.28597352
229	0x3e8ebfc4	0.2788068
230	0xbde9b109	-0.1141072
231	0xbf05b2f5	-0.5222619
232	0x3ed54d75	0.41660658
233	0xbf3290a9	-0.69751984
234	0xbe9377a2	-0.2880221
235	0x3edebd9e	0.4350404
236	0x3f0ccf45	0.5500377
237	0xbf3927c1	-0.72326285
238	0xbe8ae18f	-0.27125213
239	0x3d8a0aad	0.067403175
240	0xbcf35d0e	-0.029707458
241	0x3e5adab3	0.2137249
242	0xbf401f6f	-0.75047964
243	0xbe3e5831	-0.1858833
244	0x3d93dc80	0.072197914
245	0xbd5e7175	-0.05430742
246	0xbf6ae6a6	-0.9175819
247	0x3edb79f9	0.42866495
248	0xbf042dba	-0.51632273
249	0xbeaf0203	-0.34181222
250	0xbef5c0a6	-0.47998542
251	0x3f296deb	0.66183347
252	0x3f091f35	0.53563243
253	0x3e9916c6	0.29900187
254	0xbf2d44d3	-0.6768314
255	0xbe6ed1a8	-0.23322165

fc_1.bias f4 [128]
0	0x3f1dc2aa	0.6162516
1	0xbe8eb0c8	-0.27869248
2	0x3eb24389	0.3481715
3	0x3e4148d4	0.18875438
4	0x3d641e7f	0.055693146
5	0x3edef5a6	0.4354679
6	0xbf1a1859	-0.601934
7	0x3ecb8226	0.39747733
8	0xbef08c3a	-0.46981984
9	0x3e728219	0.23682441
10	0xbeac3095	-0.33630815
11	0xbcd1bc62	-0.025602523
12	0xbd97a10e	-0.074037656
13	0xbe499ab7	-0.19687925
14	0xbec24181	-0.379406
15	0x3d8c359a	0.06846161
16	0xbf112512	-0.5669719
17	0x3e31bcb4	0.17357141
18	0xbbf7bbd7	-0.007560234
19	0x3ebd591d	0.3698205
20	0xbdb22f21	-0.087003954
21	0xbed8ef42	-0.4237004
22	0xbbaf3c08	-0.0053477325
23	0x3f009469	0.50226456
24	0xbe933f8e	-0.28759426
25	0x3e22c0bc	0.15893835
26	0xbf0c10e6	-0.54713285
27	0xbbddc635	-0.006768013
28	0xbf01726d	-0.50565225
29	0xbe1f99ef	-0.15586065
30	0xbf0e23e7	-0.5552353
31	0xbeddd439	-0.43325976
32	0x3e95b554	0.29239905
33	0x3dd8cb41	0.105856426
34	0x3cf6dbe9	0.030134158
35	0xbec5dab3	-0.38643417
36	0x3eefb746	0.46819514
37	0x3f1ceae0	0.6129589
38	0xbd8a7bbb	-0.06761881
39	0x3c4f911f	0.012668877
40	0x3f1358d3	0.5755741
41	0xbf2ebdec	-0.6825855
42	0xbb95be37	-0.0045697945
43	0xbf1c55df	-0.6106853
44	0x3e7329f7	0.23746477
45	0x3df41a3f	0.119190685
46	0x3f19bacf	0.6005067
47	0xbf0913e0	-0.5354595
48	0xbed1cedc	-0.40978134
49	0x3ecd9e1c	0.4015969
50	0x3e4fc346	0.20289335
51	0xbddc69af	-0.10762345
52	0x3f06b300	0.5261688
53	0xbeb1e30f	-0.34743544
54	0xbed074ff	-0.4071426
55	0x3ed7d0bf	0.42151448
56	0xbefc80c6	-0.49316996
57	0xbbbf84d3	-0.0058446913
58	0x3f21d59c	0.6321657
59	0xbf1a8641	-0.60361105
60	0x3f1c2dac	0.6100719
61	0xbbcfe16b	-0.0063440106
62	0xbe00436a	-0.12525716
63	0x3e5ce967	0.21573411
64	0xbe06a347	-0.13148223
65	0xbf32eee0	-0.69895744
66	0xbd05a9c6	-0.03263261
67	0xbedfe86c	-0.4373201
68	0x3ee33c22	0.44381815
69	0x3e36b2d7	0.1784166
70	0xbf120196	-0.5703367
71	0xbe584002	-0.21118167
72	0xbf1d7f98	-0.6152282
73	0xbe8dc47a	-0.27688962
74	0xbf17a346	-0.5923351
75	0xbbce8c8d	-0.006303376
76	0xbd8fc96c	-0.0702084
77	0xbe841162	-0.25794512
78	0x3ed2a865	0.411441
79	0xbf31d5ab	-0.69466656
80	0x3f1ac110	0.6045084
81	0xbebac473	-0.36478004
82	0xbe453854	-0.19259769
83	0xbee974c6	-0.45596904
84	0xbe2cda27	-0.16880094
85	0x3e3364b8	0.1751889
86	0xbef2a11f	-0.4738855
87	0xbc8caef8	-0.017173275
88	0x3e8ed1c8	0.27894425
89	0x3f18e974	0.5973122
90	0xbd6de82b	-0.05808274
91	0xbee5a676	-0.44853562
92	0x3f11c347	0.56938595
93	0x3f29d386	0.66338384
94	0xbf16c395	-0.58892184
95	0x3eb17c8a	0.34665328
96	0xbf19b84f	-0.6004686
97	0x3e92fb04	0.28707135
98	0x3d8977aa	0.06712277
99	0x3d747ab8	0.059687346
100	0xbec183a0	-0.37795734
101	0xbdc7760c	-0.097393125
102	0x3ebc93ef	0.36831614
103	0x3e5ef4d4	0.21773082
104	0xbe917fec	-0.2841791
105	0xbbd46ac6	-0.006482455
106	0xbf337273	-0.7009651
107	0xbf1df2c9	-0.61698586
108	0x3f16ea26	0.5895103
109	0xbdbaad1a	-0.09115048
110	0xbe079182	-0.132391
111	0xbf1122b9	-0.5669361
112	0xbf216c26	-0.63055646
113	0x3e9e24d7	0.30887482
114	0xbe253bf2	-0.16136149
115	0xbe0dde43	-0.13854317
116	0xbb872372	-0.0041240985
117	0x3e2e28b5	0.17007716
118	0x3e82812d	0.25489178
119	0xbec0fb60	-0.37691784
120	0xbe80d51b	-0.25162587
121	0x3e9d54f6	0.30728883
122	0x3e36cf27	0.1785246
123	0x3f0ac4eb	0.5420672
124	0x3f136b59	0.57585675
125	0xbeb5a787	-0.35479376
126	0xbf331a1d	-0.6996172
127	0x3e2b6521	0.16737796

fc.weight f4 [1, 128]
0	0x3d51d55c	0.051228866
1	0x3b21fb37	0.0024716386
2	0x3ff7ea63	1.9368404
3	0x3dcb2c58	0.09920567
4	0x3d7fe576	0.06247469
5	0x3e82f479	0.25577143
6	0x3d8f512e	0.06997906
7	0x3db55283	0.088536285
8	0xbc236be2	-0.009974452
9	0x3f985e7f	1.1903838
10	0xbd9e9634	-0.07743493
11	0x3bb6155d	0.005556746
12	0x3d9a60d7	0.07538002
13	0x3f2f0488	0.6836629
14	0xbd9e607e	-0.07733248
15	0xbc9b423d	-0.018952483
16	0x3d3229e6	0.04349699
17	0x3cbc0975	0.022953728
18	0xbdf68175	-0.12036411
19	0x3da07c1f	0.07836174
20	0x3db1f1b3	0.086886786
21	0xbda8a166	-0.08233909
22	0xbdd88d6b	-0.10573848
23	0x3c8cebb3	0.017202234
24	0x3d032ea1	0.03202689
25	0xbcf503c2	-0.029909018
26	0xbd6e40f1	-0.0581674
27	0xbd642aa5	-0.05570473
28	0xbd5e435e	-0.054263465
29	0x3c89dbf7	0.01682852
30	0xbfa3c87d	-1.2795559
31	0xbf3c5a1e	-0.7357501
32	0xbee43d20	-0.44577885
33	0x3e81290c	0.2522663
34	0xbf8497a0	-1.0358772
35	0xbc626476	-0.013817897
36	0x3e3a42c1	0.18189527
37	0x3dad5d1a	0.08465023
38	0xbde94eda	-0.11391993
39	0xbc112e4c	-0.008861136
40	0x3d81fbc8	0.063468516
41	0x3d0585ff	0.03259849
42	0xbd158ce1	-0.036511306
43	0x3d99b7f0	0.075057864
44	0xbff01a06	-1.8757942
45	0xbba67be5	-0.0050806873
46	0x3db1da1c	0.08684179
47	0xbdb3802f	-0.087646835
48	0xbd3fbf30	-0.04681319
49	0x4007ab6b	2.1198375
50	0xbc97ba67	-0.0185215
51	0xbe3e759f	-0.18599556
52	0x3cfba047	0.030716075
53	0xbbf9a2e5	-0.0076182955
54	0x3da203e6	0.079109
55	0x3d845b6e	0.06462751
56	0xbdb12385	-0.08649353
57	0xbdaba303	-0.083807014
58	0x3d9ff845	0.078110255
59	0xbc1b7a28	-0.009489574
60	0x3e0fec18	0.14054906
61	0xbd0f73c4	-0.035022512
62	0xbf1cf085	-0.61304504
63	0x3f084160	0.53224754
64	0x3da2fd81	0.07958508
65	0xbd8f644b	-0.07001551
66	0xbc3c4645	-0.011491363
67	0xbcf4c99d	-0.029881293
68	0x3d7c704b	0.06163053
69	0xbcf232c7	-0.029565228
70	0xbdb1f57c	-0.086894006
71	0x3d961030	0.07327306
72	0x3d5b0802	0.053474434
73	0xbc9dde94	-0.019271173
74	0xbda98d5d	-0.08278916
75	0xbd94d8ff	-0.07267951
76	0xbe06fbe2	-0.13182023
77	0x3d5eb180	0.054368496
78	0xbe61e901	-0.2206154
79	0xbce07374	-0.027398802
80	0xc00e64c0	-2.2248993
81	0x3d93b436	0.07212107
82	0xbd6339d1	-0.05547506
83	0x3d5ff8bf	0.054680582
84	0xbf70af1d	-0.940172
85	0xbe4a1786	-0.19735536
86	0xbb29c515	-0.0025904824
87	0xbc5266e5	-0.012841915
88	0xc0056dc4	-2.0848246
89	0x3d6b2565	0.05740871
90	0x3d9152d6	0.07095878
91	0xbc8ee8ef	-0.017445056
92	0x3d3a0449	0.045414243
93	0x3d9eb098	0.07748526
94	0x3da17848	0.0788427
95	0x3d8f8d5a	0.070093825
96	0x3d6ae2ec	0.057345316
97	0xbebda579	-0.37040308
98	0xbe4f286f	-0.20230268
99	0x3efe5aa4	0.49678528
100	0x3c34f76d	0.011045319
101	0xbe873f8e	-0.26415676
102	0x4000856a	2.008143
103	0xbd127c90	-0.035763323
104	0x3da47675	0.080304064
105	0xbd0aa51b	-0.033848863
106	0x3b9964a5	0.004681187
107	0x3b79c120	0.0038109496
108	0x3daf8b97	0.085715465
109	0x3d1ecf89	0.03877214
110	0xbdb26e4d	-0.087124445
111	0xbd0c7ab3	-0.034296703
112	0xbc438756	-0.011934122
113	0x3eea8944	0.4580785
114	0x3d61fe35	0.05517407
115	0xbc56708b	-0.013088356
116	0xbdd21a24	-0.10258892
117	0x3d071cbd	0.03298639
118	0xbd04f587	-0.032460716
119	0x3d0ace48	0.03388813
120	0x3d2e7603	0.042593013
121	0xbf13c23c	-0.57718253
122	0x3d23ee2f	0.04002207
123	0x3e04bf44	0.12963587
124	0x3da18955	0.07887522
125	0x3d3cebf6	0.046123467
126	0xbabfbfb5	-0.0014629277
127	0x3f12bd9d	0.57320577
